model_params.pt (torch_old, 24637 bytes, 10 tensors)

gru.weight_ih_l0 f4 [24, 108]
00000000: b040 ec3e 3746 b63c f3d4 d03e 5f3c 12be
00000010: 1091 a4bd d8be 7cbe c3d4 ca3c be72 943e
00000020: 1e89 363e 1dea 06be 01d8 0c3e d15d f53c
00000030: addc 9d3d 3209 9f3e b214 d23e 72bc 0bbe
00000040: b0ac 69bd 62b0 0c3e ae44 c13e 7376 63bd
00000050: 78de 4b3e 20c4 743e ab2f e83e 1574 da3e
00000060: cebb 3d3e 9b12 5b3c 4ea1 713d c829 f13e
00000070: fdfe 983e 4d07 9cbd 57c5 233e 9b07 02be
00000080: 7f2d 2dbd 5a15 b4be 5b97 cd3e f3e4 423e
00000090: d1de 93bd 3700 853e c074 f5bb 0b96 86be
000000a0: 10c5 80be 10dd 8e3d 5937 0c3e e1cf 123e
000000b0: 2e93 dd3e 49ef 0f3e 6fd4 2dbe 18bf 98bd
000000c0: 411d 9cbe 1029 f83c fe9b a9be 90da 683d
000000d0: a2a6 483e f8aa 2abe 9364 ab3e 7670 193e
000000e0: c8f8 9f3d 8178 a03e 056f b13e e956 8f3e
000000f0: dfd6 a23e 47f9 993e 30ad fa3c 97d4 893e
00000100: c90c 24be 9294 70be 3a5c 443e 6096 98bd
00000110: 6840 143e 23fe b43e f20e 3b3e 9a71 093e
00000120: 246c c63d 8893 883d 1f8c 0cbe 1611 413e
00000130: 8128 873e bf27 3abe 4469 a23d d5dc 993e
00000140: 402c c93b 06c9 7bbe 2ae8 96be f9eb a73e
00000150: c113 72be 2066 ed3c b05e 903c 0e51 74be
00000160: 5349 77be 1ff0 a03e 5014 ca3c af42 973e
00000170: 50cb e13c b098 a7bc 02b8 82be faa6 7c3e
00000180: 10fb 1e3d 76fe 72be ec01 843d f2dc 9e3d
00000190: e8d6 a3bd 61e8 e83e 9cdb ee3e 2817 43be
000001a0: 032a 8bbe 1e75 093e 6ab4 c13e 36a2 723e
000001b0: c1ce 8a3b 37d4 a5be d3a1 163e c69c 29be
000001c0: 7851 e2bd cba9 0dbf 173c 293e 381e 8e3e
000001d0: f365 8cbe 020d eb3e 09b2 65bd 8f0e b83d
000001e0: d565 023e e078 60bd 0c34 1f3e b43c 65be
000001f0: 434c 23be 95cb b9be f5f7 31bc 2478 04bc
00000200: 72d0 ef3d be19 483e 51e8 a73e 00bc 82be
00000210: 55db 11bc 8790 0dbe 42b1 883e 0f85 853e
00000220: b307 c63d 4115 c0bd b04a e3bd f980 643e
00000230: 7bd7 6b3e 9e66 aebe 1777 8d3e 40fa 90bd
00000240: 619a b7be 5e89 153e 8005 f43c 9ae4 53be
00000250: 195f b0be 22cd 0a3f 3f8d 7bbe 6567 26be
00000260: 3659 c23e 8851 0ebe d82e 4cbe b47b 15be
00000270: 6688 3f3e 3980 903e 872a a93e 653f 9bbe
00000280: bc9e 61be cc3f 93be 900b 9c3d 6f25 ac3e
00000290: 1bb6 933e 5da2 aebe 34f6 993d 3e99 61be
000002a0: 6233 373e a3d1 b03e 68b3 963d 5a6f 433e
000002b0: 2c07 f63d 768c 2d3e c9b2 0bbe c057 463c
000002c0: 0067 563d 1c07 87be 8617 76be 06d2 643e
000002d0: a4ad afbd 4080 18bd 40d3 403d 48cf 39bd
000002e0: 40c0 1fbe dc85 f5bd 90aa 4fbe 34e1 ba3d
000002f0: 85f6 a5be a0e9 49be b8f8 5cbd 0e5a 99be
00000300: 3e4b 0c3e 008b dc3b 5175 a63e 10d0 8a3c
00000310: 1879 bc3d 0e21 653e 21a9 ac3e 7f32 8c3e
00000320: a00a a8be 36d1 2e3e a0cc f3bc 681a acbd
00000330: 2a2d 543e f43d adbd 881e 373d 1037 ca3e
00000340: fc9d 823e 4d01 023e d9a0 4cbd e09f acbe
00000350: 2ca3 9c3e 7f1d ee3d fba8 db3d d15e 463e
00000360: e5a2 e6bd db59 97be adb1 c73d d966 7ebd
00000370: 797f 9abe 8a39 2b3b 8ea4 c63e af6a 9a3e
00000380: d9ee d5bd 5627 1abe 9bdf 1ebd 57a9 673e
00000390: fcbf 833e 02d8 4abe df31 b13e 75f3 1a3e
000003a0: 30bc 543e 9e47 0a3f bd6f debc 61d3 e8bd
000003b0: 3b4d e83e df61 663e 3e2d 87bd dba4 093e
000003c0: 54fc e93e 775e 763e f542 6cbe 2121 fc3e
000003d0: a76d 67be 26ba 58bd 0f24 84be 7ad7 853e
000003e0: 9840 d73e 70bd 6ebe ea42 303e 2680 b4be
000003f0: 627e b8bd 563c 4a3e a21b 94be 701e cf3d
0.46143103 0.022250278 0.40787467 -0.14280842 -0.08035481 -0.24682176 0.024759656 0.2899379
0.17825744 -0.13175245 0.13754274 0.029951962 0.07708106 0.31061703 0.41031414 -0.13646105
-0.057049453 0.1373916 0.3774771 -0.055532884 0.19909084 0.23902941 0.45348868 0.4266669
0.18528673 0.013371135 0.058991723 0.4710219 0.2988204 -0.0761858 0.15993248 -0.12698214
-0.042279717 -0.3517254 0.40154538 0.1903265 -0.07220233 0.25976726 -0.0074907243 -0.2628635
-0.25150347 0.06975758 0.13692988 0.14337112 0.43276352 0.14056124 -0.16975568 -0.07458323
-0.3049107 0.030293018 -0.33126825 0.056849062 0.19594815 -0.16666782 0.3347517 0.14984307
0.07811123 0.31341937 0.34655014 0.27995995 0.3180456 0.30072996 0.03060016 0.26920006
-0.16020502 -0.23494175 0.19175807 -0.07450557 0.14477694 0.3535014 0.1826742 0.13422242
0.09688595 0.06668764 -0.13725327 0.18854174 0.2639809 -0.18179224 0.07930234 0.30051294
0.006139308 -0.24588403 -0.29474002 0.3279722 -0.23640348 0.028979361 0.017623276 -0.23859045
-0.24149065 0.31433198 0.024667889 0.29543063 0.027562767 -0.02045855 -0.25531012 0.24673072
0.03881365 -0.23729882 0.06445679 0.07756986 -0.079999745 0.4548979 0.46651924 -0.19051802
-0.2718049 0.13423583 0.37832958 0.23694691 0.004236073 -0.3238847 0.14710169 -0.1656371
-0.11050695 -0.5533721 0.16526829 0.2775743 -0.2742153 0.45908362 -0.05607799 0.08987152
0.12734158 -0.054802775 0.15547198 -0.22386438 -0.1594706 -0.36288133 -0.01086234 -0.008085284
0.1170968 0.1954107 0.3279443 -0.25534058 -0.0089023905 -0.13824664 0.26697737 0.26078078
0.09669437 -0.09379054 -0.1109823 0.22314824 0.23031418 -0.34062666 0.2762992 -0.070789814
-0.3585997 0.14603183 0.029787779 -0.20692673 -0.34447554 0.5421926 -0.245656 -0.1625038
0.37958688 -0.13898289 -0.19939744 -0.1459797 0.18704376 0.28222826 0.33040258 -0.30321804
-0.22033209 -0.2875961 0.07619393 0.3362231 0.28849873 -0.34108248 0.07517663 -0.22031114
0.17890695 0.3453494 0.07358438 0.19085446 0.12013087 0.16948113 -0.1364242 0.012105882
0.052344322 -0.26372612 -0.24032411 0.22345743 -0.08578041 -0.037231684 0.047076464 -0.045363694
-0.15600681 -0.11988422 -0.20279908 0.09124985 -0.32414642 -0.19718027 -0.053948134 -0.2995152
0.13700578 0.0067304373 0.3251138 0.016944915 0.09202784 0.2237589 0.33722785 0.27382275
-0.32820606 0.17071995 -0.029760659 -0.08403474 0.20720354 -0.08459082 0.04470685 0.39495134
0.25511158 0.12695809 -0.049958084 -0.33715725 0.3059324 0.1162672 0.1072559 0.19372107
-0.112615384 -0.29560742 0.09750686 -0.062109802 -0.3017538 0.0026126825 0.3879742 0.30159518
-0.10445947 -0.15054068 -0.038787466 0.22623192 0.2573241 -0.19808963 0.3460836 0.15131934
0.20774913 0.5401553 -0.02715289 -0.11368442 0.45371422 0.22498272 -0.06600426 0.13441794
0.45700324 0.24059473 -0.23072417 0.49244025 -0.22600423 -0.0529119 -0.2580876 0.26140958
0.4204147 -0.23314452 0.17213026 -0.3525402 -0.090084806 0.19749579 -0.28927332 0.10113227

gru.weight_hh_l0 f4 [24, 8]
00000000: 11cf 55be fae8 30be 3493 bc3e 5c8e 4cbe
00000010: 6e65 1fbd 327e 183e 79c3 98bd 2d95 a8bd
00000020: 090c 9bbe a2f7 d33e 6ee7 f53d 2e75 05be
00000030: 9fcb 893c d688 773c 2da8 96be aa5c 473e
00000040: 5bfa 84be 36f7 643e a5ad 4bbe 5135 acbc
00000050: 32a9 773d e56b b43d 1842 09bc 8f40 663e
00000060: 106f 753e bad9 e5bd 543c 8fbd 0c87 9b3e
00000070: 36ff e73c f93e 1d3e ce2d b8be 3661 95bc
00000080: 3976 83be be39 84be 65be 38be e9ca 76be
00000090: 3975 77bc fe34 7a3e e44d 95be bd48 07be
000000a0: 44c2 4ebe 8435 f13e 18e6 993e 8cd8 d9bb
000000b0: 0925 ab3d 13a1 a1be ecda 48be e262 55be
000000c0: d8eb 143c 6d46 483e 6dfd f53d 69ec 87bd
000000d0: 7a10 fa3d 5cbf 773e f5af f63c 124e f0be
000000e0: 2812 babd 22b1 b9bd af96 2d3c a2d8 dabd
000000f0: 16fd 8dbe a38e 6abd f015 82be f413 24bd
00000100: 2bed 7bbe 3da3 fdbd df12 8d3c 7a6a 14be
00000110: d99c bd3e c8cd 0f3e 2d7b 183e 1a3c 27be
00000120: 97dd 243e 75ed 2fbe f569 7b3e 2b60 2c3e
00000130: 94eb 2dbe fe5d 873e 762f 813d 5ba3 22bd
00000140: ed3c 38bb 367a f1bc 2efc 1fbe 5737 303e
00000150: 8176 d1bd 7e7f aa3e 1ab5 ad3b 160d c63d
00000160: 5202 0cbe cc16 2d3e 9ec7 2bbd 2b10 fdbc
00000170: bb66 903c faa4 3bbd 4687 e4bd 77c2 a2bd
00000180: 6b43 d23e 14be 1cbf 89a5 a2be 4961 93be
00000190: 5a2f 963e db31 3fbe c968 3b3d 6b52 723e
000001a0: 4d68 103f b5a5 e2be d1af 93bc 0d58 b6be
000001b0: 8df5 073e d1c0 ab3e 6a3e aa3e 91b3 77be
000001c0: eb2b d83e d8d7 873e 03c2 53be b082 cbbe
000001d0: 169c 57be 58e5 49be c5ec f43e 7be4 9c3e
000001e0: 3ac2 8c3e 471e 4e3e 5a8d 8cbc e6de 823e
000001f0: 9317 c63e ce73 c8be 06d1 a03e abb0 6dbe
00000200: 7b22 ff3e 7295 fbbe f301 adbe 1f29 90bd
00000210: bf0e 9cbe 1401 573d a20c 9c3e fb65 c9be
00000220: 906e 42be efda 513e 36b3 9aba 626f a7be
00000230: 8f81 9b3e b1ba d2be f1b4 fc3d 3a31 9fbc
00000240: c9e1 d6be e954 09bd 8868 3d3f e4c9 84bd
00000250: 30b6 e2bd a9aa 85be 9098 8b3d 39ee 033e
00000260: 5224 e73d 64e4 de3d f475 82be aa41 85be
00000270: ca01 5ebd 7cdc 1c3e 7b33 72be 41de b23e
00000280: 4a08 5b3e 8c2d 523e 2e01 033e c675 eb3d
00000290: 91d2 d33e cd96 4a3e 41de cabe d6de b7be
000002a0: c0f0 ad3e 3f30 7dbe 3590 acbe 2146 aa3e
000002b0: 1448 64bd f1b2 1bbe da3d c63e 3dea a03e
000002c0: 02f2 41be 808d bdbc 1cbd 8d3e fe1e b1be
000002d0: e352 22bd af3d 563e 01cb 87bd 73d2 bf3e
000002e0: 6968 e5be 05f3 f53c e840 473d 2fcc 54be
000002f0: aeda 0b3e dcb7 a6bd d6d6 723b 2d00 873d
-0.20879771 -0.17276374 0.36831057 -0.19976181 -0.03891509 0.1489189 -0.074591585 -0.08231578
-0.3028262 0.41399866 0.12007032 -0.13032982 0.016820727 0.015108308 -0.29425183 0.19468942
-0.25972256 0.22359928 -0.19890459 -0.021021517 0.06046409 0.08809642 -0.008377574 0.22485565
0.23968148 -0.11223169 -0.069939286 0.3037647 0.028319936 0.15356053 -0.35972446 -0.01823483
-0.25676134 -0.25825304 -0.1804138 -0.24100842 -0.015103632 0.24434277 -0.29160988 -0.13211341
-0.20191294 0.47111142 0.3005836 -0.006648129 0.08356673 -0.31568202 -0.19614762 -0.20838502
0.009089433 0.19558115 0.12011228 -0.066368885 0.12210174 0.24194092 0.0301132 -0.46934563
-0.09085494 -0.090669885 0.010595008 -0.10685851 -0.27732152 -0.057264935 -0.25407362 -0.04005809
-0.24602191 -0.12384651 0.017220913 -0.14493743 0.37033728 0.14043343 0.14890738 -0.1633152
0.16100155 -0.17180426 0.24552138 0.1683356 -0.16984397 0.26438898 0.063078806 -0.03970657
-0.0028112486 -0.02947722 -0.15623543 0.1720861 -0.10227681 0.33300394 0.00530113 0.09670465
-0.1367276 0.16903228 -0.041938417 -0.030891499 0.01762711 -0.04581163 -0.11158614 -0.079472475
0.4106706 -0.61227536 -0.31766918 -0.2878516 0.29333 -0.18671362 0.045754228 0.23664252
0.5640915 -0.4426705 -0.018028172 -0.35614052 0.13277264 0.33545545 0.33250743 -0.24189593
0.42221007 0.26531863 -0.20679478 -0.39748144 -0.21055636 -0.19716394 0.4783689 0.30643067
0.27491933 0.20128737 -0.017157245 0.25560683 0.3868986 -0.39150852 0.31409472 -0.23211925
0.49830994 -0.49137455 -0.3379055 -0.07039093 -0.3048 0.052491263 0.30478388 -0.39335617
-0.18987489 0.20493673 -0.0011802677 -0.32702166 0.30372283 -0.4115806 0.12339199 -0.019432653
-0.41969135 -0.033528242 0.7398763 -0.0648382 -0.11069906 -0.26106766 0.06816208 0.12883843
0.112862244 0.10883406 -0.25480616 -0.2602666 -0.054200925 0.15318483 -0.2365245 0.3493519
0.21389881 0.20525187 0.12793419 0.11497073 0.41371587 0.19784088 -0.3962269 -0.35912198
0.3397274 -0.24725436 -0.3370377 0.3325663 -0.0557328 -0.1520498 0.38719064 0.3142871
-0.18939975 -0.023138762 0.27683342 -0.34593958 -0.03962983 0.20921968 -0.06630517 0.37465248
-0.4480622 0.030023107 0.048645884 -0.20781015 0.13657638 -0.08140537 0.0037054322 0.065918304

gru.bias_ih_l0 f4 [24]
00000000: 2cd2 c33e befd 673e d5b2 d23e 0c0e 08be
00000010: bf5b cd3d 0f36 df3e c13f 433e a45b 693d
00000020: e6f0 2b3e ccdf b0be 09b1 9dbe 307d 6b3d
00000030: 507c 88be fa26 9b3e f18a 0a3c 48d3 47be
00000040: e877 933d 11cf 57bd 2147 9a3e da6b 81be
00000050: 01e0 2a3e 5788 9e3d b7a7 32be 2efb babd
0.38246286 0.22655389 0.41152063 -0.13286608 0.10027265 0.4359593 0.19067289 0.05697216
0.16791114 -0.34545743 -0.3079913 0.057492435 -0.26657343 0.30303174 0.008455978 -0.19514191
0.07200605 -0.05268771 0.30132392 -0.25277597 0.16687013 0.077408485 -0.1744679 -0.0912994

gru.bias_hh_l0 f4 [24]
00000000: 4007 babc ed10 273e 0c98 683e 8d42 7a3e
00000010: eb7b 373d f665 50be 214a e7bd 0ea0 1d3e
00000020: 3fdb 9dbe 6fc6 3e3e 7e8d a2be c434 8b3e
00000030: ff86 32be bd30 9abd 7df8 98be 366d a13d
00000040: 87a2 10be 08e1 883e 1511 833e 0d9e ee3d
00000050: 7f4b e8bd b1bc e7be c2f9 58be 07e5 09be
-0.022708535 0.1631505 0.22714251 0.2443945 0.04479591 -0.20351395 -0.11293436 0.15393087
-0.30831334 0.18630384 -0.31748575 0.27188694 -0.1743431 -0.07528827 -0.29877082 0.078821585
-0.141245 0.26734185 0.2559897 0.116512395 -0.11342525 -0.45261148 -0.21189025 -0.13466273

gru.weight_ih_l0_reverse f4 [24, 108]
00000000: 4d81 213e dace 08be 76bd 463e 06b8 7d3e
00000010: cdff 26be ba2f c7be f710 a03e a98e 14be
00000020: 8d94 88be 292c 693e 2014 803e e012 4dbc
00000030: 9a61 9abe dddd 7c3d 6106 853e d60e 41be
00000040: 9c93 1ebc e3c2 dd3d fc92 283d 6d92 5cbd
00000050: d76d 7fbd 00d3 9a3e e476 ba3e 3913 3cbe
00000060: 1c67 a03e 0c11 0a3d bf28 c1bd a41d 93be
00000070: 7dab 3ebe 2635 a53e 5783 a33e 8b04 8cbe
00000080: cf9e 443d 018e afbe a076 073f d128 643e
00000090: 4e93 e0be 406a 39bd 0047 dabc 987a a83d
000000a0: e8d7 6ebe a656 813e 55a8 8dbe 62d5 753e
000000b0: 588a 013d 272f 693e 1bde 023e eeda 6ebe
000000c0: 9b03 803e 44b5 82bd fcbb abbd b764 79be
000000d0: 5122 8fbe d453 afbe 3742 24be 8091 a8be
000000e0: 8954 a83e 1e23 0abe 7099 8e3c acca a53d
000000f0: d675 b0be 79ea aa3e d00e cebd 4d5e 9a3e
00000100: 3b75 9d3e 39eb 09be 35da ac3e fba4 803e
00000110: 2acb 303e ae3f 3d3e 18f3 c4bd 331e a9be
00000120: b84d 0a3e 504a 60bd 989e e7bd 102e bb3d
00000130: 922a 9ebe 8010 bb3b 21de 823e e3f7 4cbe
00000140: c4ac c8bd 2a2d 77be 3776 62be 964c 55be
00000150: 47e0 983e 9172 19be ead1 2d3e 4202 003e
00000160: e2f0 04be 2e92 433e 6f96 a33e ce89 83be
00000170: 36ec 89be 8846 5e3d b9a8 813e 920b 753e
00000180: 53b3 a63e b6e1 02be 67ae b03e 6549 02be
00000190: ffc8 4dbe fe93 bd3e 4390 c33e df39 843e
000001a0: 5ea8 99be 7cfd dc3e 210c ba3d e699 4e3e
000001b0: 967b e83c 2f67 9a3d bda1 ea3d 76f4 58be
000001c0: 75af dd3e 15cd a83e 49dc 903e 3da1 d2be
000001d0: 83b9 b83c 47cb 1b3c 2171 f93b 1568 f3bd
000001e0: 2465 26be 1777 70bd 05bc 25be 1a4c 9dbe
000001f0: 187f d33e 8687 84be fe1f 8ebe 3ce0 78bc
00000200: d3ee e43d f033 bb3e ef2c 403e f398 573e
00000210: 46d0 973e 2870 1cbe b712 0cbe 7f55 83bd
00000220: 635b c4bd d630 cdbd 01dd 66be 1c28 09be
00000230: a8ff b2be bca4 97be 77fc 263e 6a08 5bbe
00000240: 3134 a53d 7185 a33e 6027 6abc 95cd 4cbe
00000250: 401e 213d b09f 9fbe b5d9 9c3d f8d9 b83b
00000260: 136a c0be a86a 3fbe 5468 c9bd 0f9e 49be
00000270: 2e4f fbbd 1133 b23e 3521 8b3e 5706 16be
00000280: 9e96 7b3e 7250 253e 080a a3be d1b9 56be
00000290: cdec aa3e 7186 acbe 23ce b43e 6ecc aebe
000002a0: 4468 0bbe 1208 023e 299e 963e 717d af3e
000002b0: 40dd 0bbd 413a 853e b948 96be 0896 9ebe
000002c0: f4bd ab3d 4143 833e c027 443c 97d6 ae3e
000002d0: a1da 9ebe de50 1fbe 9237 7e3e 1f98 8fbe
000002e0: b0d5 a73d e2e4 223e fcab 97bd 4a85 363e
000002f0: 5685 92be a9de 8fbe 3f1d 953e 382e 3a3d
00000300: 407e 493d 388d e8bd a048 3c3d 5ad5 233e
00000310: 20b8 a43c 522a 7d3e 00ff 0b3c c8ea 3dbe
00000320: 652c 8a3e f936 3cbe fe16 5a3e 5437 cf3d
00000330: eb3f aebe 861e a9be 6e1c 233e 0078 5f3d
00000340: 0d14 d1bb da69 683d 5088 513e 200b 08bd
00000350: 31e9 f4bd 03a0 b6bd d3ee 6fbe 4ee8 7f3e
00000360: 31a2 23bd 3155 6c3e c013 e5bd 96b3 aabd
00000370: a608 ec3e ad92 e1bd 5626 423e 26ba 063e
00000380: 730b ae3d 6e99 4e3e 4248 d3bd 2afd 5abd
00000390: a1ed bf3d 5028 ac3e 231a 99be a0f2 7ebe
000003a0: a811 88be e11b 87be 792a 9d3e b9fc 4fbe
000003b0: 7a9e d93e 73ac 4bbe 5da0 393d d33e 1a3e
000003c0: d041 dd3d be8c cd3d ccca 193e 79bf d3bd
000003d0: a771 66be cb17 9e3e dd4b 85bd 0f5e 873e
000003e0: 56c5 913e 8a8c aebe 0dbd b2be 7861 933e
000003f0: a07a 273e 649b 9abd 8bb6 913e 29c6 843e
0.1577198 -0.13360158 0.19408211 0.2477723 -0.16308518 -0.389036 0.31262943 -0.14507546
-0.26675835 0.22770752 0.25015354 -0.012516707 -0.3015259 0.061735023 0.2598143 -0.18853316
-0.0096787475 0.10828187 0.0411558 -0.05385058 -0.06236061 0.30239105 0.3641883 -0.18366708
0.31328666 0.033707663 -0.094316 -0.28733552 -0.18620105 0.32267112 0.31936142 -0.27347216
0.048003014 -0.34288028 0.5291538 0.22281195 -0.43862385 -0.045267344 -0.026645184 0.08226508
-0.23324549 0.2526142 -0.2766749 0.2400718 0.031626076 0.22771893 0.12780039 -0.23325703
0.2500275 -0.0638223 -0.083854645 -0.24354826 -0.2795587 -0.34243643 -0.16040884 -0.32923508
0.32876995 -0.13489959 0.01740715 0.08095297 -0.34464902 0.33382013 -0.10061419 0.3015007
0.30753502 -0.13468637 0.3376023 0.2512587 0.17265001 0.18481323 -0.09616679 -0.33030853
0.1350621 -0.05475837 -0.11309546 0.09139645 -0.30891854 0.005708754 0.25560096 -0.20016436
-0.097985774 -0.24138322 -0.22115408 -0.20829996 0.2985861 -0.1498511 0.16974607 0.12500861
-0.12982515 0.19098732 0.3195071 -0.25691074 -0.26938027 0.054266483 0.25324038 0.23930195
0.3255869 -0.12781414 0.34508058 -0.1272331 -0.20096205 0.37026972 0.38196 0.25825402
-0.30011266 0.43162143 0.09084345 0.20175895 0.028379243 0.07539212 0.114566304 -0.21187004
0.43297926 0.32968965 0.28293064 -0.4113864 0.022549396 0.009508914 0.007612363 -0.118850864
-0.1624952 -0.058707323 -0.16185005 -0.30722123 0.41307902 -0.25884646 -0.27758783 -0.01519018
0.111783646 0.36563063 0.18767141 0.21054439 0.29651088 -0.15277159 -0.13679014 -0.064127915
-0.09587743 -0.1001908 -0.22545244 -0.13394207 -0.34960675 -0.2961787 0.16307245 -0.21389928
0.08066595 0.31937745 -0.014291614 -0.20000298 0.03933549 -0.3117652 0.07658712 0.0056412183
-0.37580928 -0.1869303 -0.09834352 -0.19689201 -0.12270962 0.34804586 0.27173772 -0.14650856
0.24569175 0.16143969 -0.3184359 -0.20969321 0.3338379 -0.3369632 0.3531352 -0.34140342
-0.13613993 0.12698391 0.29417542 0.34275392 -0.034146547 0.26021007 -0.29352358 -0.3097384
0.0838584 0.25637248 0.011972368 0.34148094 -0.31026176 -0.15558192 0.24825886 -0.28045747
0.081950545 0.15907624 -0.0740585 0.17824283 -0.28617352 -0.28099564 0.29123875 0.045454234
0.049192667 -0.1135506 0.045967698 0.15999356 0.020107329 0.24723175 0.008544683 -0.18546593
0.26986995 -0.18380345 0.21297833 0.10117975 -0.3403314 -0.330311 0.15928814 0.0545578
-0.006380564 0.056741573 0.20462155 -0.033213735 -0.1195854 -0.089172386 -0.23430948 0.24990961
-0.0399496 0.23079373 -0.11185408 -0.083350345 0.46100348 -0.11014304 0.18959936 0.13156947
0.084982775 0.20175716 -0.103165165 -0.053464092 0.09371496 0.33624506 -0.29902753 -0.24897242
-0.2657597 -0.26388457 0.30696467 -0.2031125 0.4250372 -0.19890003 0.04531895 0.15063028
0.10803568 0.1003661 0.15018767 -0.10339255 -0.22504292 0.30877528 -0.065086104 0.2643895
0.28470868 -0.34091598 -0.3490986 0.287853 0.16355371 -0.0754917 0.28459582 0.25932434

gru.weight_hh_l0_reverse f4 [24, 8]
00000000: 3160 083e 30fb ecbc c0bc babe 7b6e debe
00000010: 67c4 913e a17d 5e3e 8818 123e 64f4 3fbe
00000020: c315 c43d 4670 14be 579c fa3d a949 46bc
00000030: 84a3 88be 60d9 40be 7685 c43e 16bc aa3e
00000040: 5979 0fbf 8d3d 84be f5e3 98bb 930a 1abe
00000050: 5a26 853e 21d4 c0bd b6c5 02be 73ab 96be
00000060: eab6 a6be a79a 13bc d0ce 823d 3406 bdbc
00000070: 78b8 7abe 3a59 a03e 0638 be3d 6872 0d3e
00000080: 44f1 77bd 9ea2 8abd ce44 1fbe e936 5ebe
00000090: 510b 3f3c e3e1 a0bd 6b93 c0be 1d56 ba3d
000000a0: d3cc 33be cec8 53be aa8d cb3d 5e27 40be
000000b0: 16b2 763e 744e 2e3e 4bca 003e 3e80 c5be
000000c0: 9455 e4bc b5f3 183e a05e 7b3d 2c64 7b3d
000000d0: c547 303e 11ab b73e 17af 18be 591f 0a3e
000000e0: 17bc 6d3e 17e8 0c3e 10f4 5fb8 b22b 0abe
000000f0: 3d57 e8be ae3a 823e f606 633e 1b12 cebd
00000100: 9f2c a83e 8910 86be bcdd b2be 85f0 e0bd
00000110: c49c 5bbd 4e59 dc3c fc90 7ebc 4931 51be
00000120: 497e b93e 30b9 703e 2253 50be 247e 73bd
00000130: c07c 6abd f168 893e b263 aabe 2e75 40be
00000140: a97a 1abe 61b3 5e3e a3c2 5d3e 7d53 673e
00000150: cbaf 993c 66cf 8d3e daeb c83d 206b 9f3e
00000160: 02f9 cb3d 6703 d1bd 0f03 2f3e f11c bcbe
00000170: c360 52be 7f96 c83e 78ba d83d d894 3bbe
00000180: 44fe 0c3e 39d8 7abe ed5f 963d 2843 1a3e
00000190: 1521 133e 61b9 11be 441b b63e 2016 a53d
000001a0: 593f f2bd e92e 7f3d f528 7ebe 3a26 edbd
000001b0: 5f13 e33e a413 143e ece6 eabe 626c c23d
000001c0: c627 77be e3f9 df3e 5075 5e3e bcd5 353e
000001d0: bb9e e6bc 3de9 62be 5dd3 873e a172 5d3e
000001e0: c53a 8dbe c51e 073e 62fd e4bd 24ff 923e
000001f0: decf 2a3d 42a8 ecbe 1d7e 233d 8b51 8c3e
00000200: 4010 21be 2dd3 4ebe 1c74 1a3d babe 13bd
00000210: 3cb6 0bbf 7087 b0bc aacb 0a3f a5e6 aa3e
00000220: 2b5f 5abd 56a7 e3bd 4702 893e b916 323e
00000230: 2b2a 523e 0da7 973d d76e a7be 3c90 303e
00000240: e365 253e a1a3 d2bd ad82 91bd 5ecc 033f
00000250: e7ea 823e fcb6 9dbe 1edd 50be 125f dc3e
00000260: 3f13 76be 5f81 963e 95e8 11bb de1f a53e
00000270: cebb ec3e 22e5 7a3e 5c2e 96bd 0f8b 23be
00000280: 826e fcbd aa1c 66be be5d 61be a73f a3be
00000290: 478c 59be 4bd8 ad3d 949e 48be 8f8d 86ba
000002a0: 681c 9ebd d76d 453e c6a8 833d e1dd 7dbe
000002b0: f07b 583e dc84 813e 0693 fb3e e710 0f3e
000002c0: 7c9c 9b3e 3878 693d 090b 0b3e e988 203e
000002d0: b8d3 893d b2bc 013c 2ffa 163f 49c5 87be
000002e0: d7a6 1f3e 0a72 74be 36a5 e9bd 7f3f 0abe
000002f0: 1f00 8bbd 3ade f2bd 3d92 133f d111 babd
0.13317944 -0.02892837 -0.3647213 -0.43443665 0.28470156 0.21727611 0.1426717 -0.18745571
0.09574463 -0.14495954 0.12236851 -0.012102523 -0.26687253 -0.18832922 0.38383073 0.33346623
-0.56044537 -0.2582821 -0.0046658465 -0.15043096 0.26005822 -0.094154604 -0.12770733 -0.2942768
-0.32561427 -0.00900904 0.063871026 -0.023074247 -0.24484432 0.31318074 0.092880294 0.13813174
-0.060532823 -0.06769298 -0.1555359 -0.21700634 0.011660413 -0.078555845 -0.3761247 0.09098456
-0.17558603 -0.2068207 0.0993913 -0.18765017 0.24091372 0.17022115 0.12577169 -0.38574404
-0.027872838 0.14936717 0.06136954 0.06137483 0.17214878 0.358727 -0.14910541 0.1348852
0.23216282 0.1376041 -5.3394644e-05 -0.13493231 -0.45379058 0.25435394 0.22170624 -0.10062047
0.32846543 -0.2618449 -0.34934795 -0.109833755 -0.0536163 0.026898053 -0.015537497 -0.20428957
0.3622916 0.23508143 -0.20344213 -0.05944647 -0.057247877 0.26837876 -0.33279186 -0.187947
-0.15085854 0.21748115 0.2165628 0.22590442 0.018760582 0.27697295 0.0981061 0.31136417
0.09959604 -0.10205727 0.1709101 -0.3674083 -0.20544724 0.3917732 0.10582441 -0.18318498
0.1376887 -0.24496545 0.07342515 0.1506468 0.14368089 -0.14230873 0.35567677 0.08060861
-0.11828489 0.062300596 -0.24820311 -0.11579557 0.44350716 0.14460617 -0.45879304 0.09493329
-0.24136266 0.43745336 0.21724439 0.17757314 -0.02815186 -0.22159286 0.26528445 0.21625759
-0.275839 0.13195331 -0.111811414 0.28710282 0.041702144 -0.4622212 0.039915193 0.27405962
-0.15728855 -0.20197745 0.037708387 -0.036070563 -0.5457494 -0.021548957 0.54217017 0.33379093
-0.053313415 -0.11115901 0.2675955 0.1739148 0.20523898 0.07404909 -0.32701752 0.17242521
0.16152148 -0.10285116 -0.071050026 0.51483715 0.2556984 -0.30803668 -0.2039685 0.43041283
-0.2403078 0.29395577 -0.0022263874 0.32250875 0.46237034 0.2450147 -0.07333061 -0.15971015
-0.12325765 -0.22471872 -0.22008416 -0.318845 -0.21244918 0.0848852 -0.19591743 -0.0010265576
-0.07720262 0.19280182 0.06428675 -0.24791671 0.21141028 0.25296676 0.49135607 0.13971291
0.30392826 0.056999415 0.13578428 0.15677227 0.06729835 0.007918524 0.589755 -0.26517704
0.15590988 -0.23871627 -0.114084646 -0.13500784 -0.067871325 -0.118587926 0.57645017 -0.090854295

gru.bias_ih_l0_reverse f4 [24]
00000000: aac4 5bbe 07b6 edbd de33 113e ef6f a33d
00000010: 8b85 22be 5c01 11be ec03 7abe 892f 813e
00000020: cad8 693e 8fc2 e1bc e24b 69be 9433 b6bd
00000030: 6864 51be 3eb1 7c3e d51a e8bc 0b58 3abb
00000040: b7bf 3bbe 3d12 79be ec7f 20be 43fe 84be
00000050: 73c9 e5bd 89d4 2b3d a3c4 0c3e 17e2 6e3e
-0.2146174 -0.116069846 0.14179942 0.07980334 -0.15871255 -0.14160675 -0.24415559 0.2523158
0.22836605 -0.027558593 -0.22782853 -0.088965565 -0.20448458 0.24676988 -0.028333107 -0.0028433825
-0.18334852 -0.24323364 -0.15673798 -0.25975236 -0.11220064 0.041950736 0.13746886 0.23328434

gru.bias_hh_l0_reverse f4 [24]
00000000: a035 3f3e b380 d8bd 190a da3e 6b32 1dbe
00000010: 0d0f f5bd 4cd8 8bbe 8fca 933c e7d7 52be
00000020: a5a9 7a3d 8a1a 943d 04a4 4bbe eb4b 9c3e
00000030: 3e48 0dbd 2444 febd ca82 083e ff59 a13d
00000040: aebc 8cbe 8d3f 34bd 106a 5cbe 2cb6 9fbe
00000050: 8171 a73d 879a 20be 790a fc3d 35c1 84bc
0.186728 -0.105714224 0.4258583 -0.15351264 -0.11965761 -0.2731346 0.018040923 -0.20590173
0.061196942 0.072316244 -0.19886786 0.3052667 -0.034492724 -0.124153405 0.13331142 0.078784935
-0.274877 -0.04400592 -0.21524835 -0.31193674 0.08175946 -0.15683948 0.12306685 -0.01620541

linear.weight f4 [4, 24]
00000000: c749 22be 2be0 a23d ac64 c7bc f0f6 1b3e
00000010: 5455 363d 4375 8ebe 8fa4 6c3e 49f2 023d
00000020: 2092 76be ab99 923e e7e4 883e 3e49 a63e
00000030: 4501 263d 6497 b0be b471 17be aa6f 18be
00000040: cd81 91b9 639e 9d3e 6166 7c3e 6c9d 1b3e
00000050: 7be9 d43c b84b 73be 8f4d 9abd 46d7 8ebd
00000060: fdb0 6abe cf98 84bb d635 ad3e dcce a0bd
00000070: f481 1abe 38c5 43be eabf b73d b6bf ac3e
00000080: 3e34 c2be 65f7 763e 0203 983e 190f 223e
00000090: b9fe 0b3e cd3b a9bd 30bf 6abe 37b9 9c3e
000000a0: 7260 bbbe 4599 5a3e ad9d cb3c 6ec4 7f3e
000000b0: ac56 8dbd 508b b23d 347e 4f3e 3ea3 143e
000000c0: 1600 c03e f1e8 c13c 1765 833e 6240 6bbd
000000d0: 5928 25be 695d 603e 0291 723e da66 a73c
000000e0: 8128 ca3d cc9d b2bd 2df9 45bc d89e c2bc
000000f0: 8534 4abe ed3a 323e 002c 7e3e 503c ba3d
00000100: ba38 1d3e f318 45be 6c33 113e 6bdc bc3c
00000110: 2973 0dbe b645 103d 2df6 943e 8e04 803e
00000120: 9da2 8b3e 0e27 d1bc a8ad 0f3e 676a 763d
00000130: 4159 a2be 705f 4f3e b1c6 9f3d aea7 713d
00000140: ef78 673e 48a0 63be 6e28 65be e333 a93d
00000150: 68b7 a0be f073 343e fcba 633e a196 ac3e
00000160: 1bf9 853e dc3e 01be 1aa4 a83d c96a 893e
00000170: c994 34be 9ae1 18be df0a d73e 7cc3 9c3e
-0.15848456 0.07952913 -0.024339996 0.15230918 0.04451497 -0.2782384 0.23109649 0.031969342
-0.2407918 0.28632864 0.2673714 0.32477754 0.040528554 -0.34490502 -0.14789468 -0.14886346
-0.00027753264 0.30784902 0.2464843 0.1519677 0.025990238 -0.23759353 -0.075343244 -0.06974654
-0.22919078 -0.0040465365 0.33830136 -0.07851955 -0.15088636 -0.19118202 0.089721516 0.33740014
-0.37930483 0.24117811 0.29689795 0.15826072 0.13671388 -0.08263359 -0.22924495 0.30610058
-0.3659702 0.2134753 0.02485546 0.24977276 -0.06901297 0.08717978 0.20262986 0.14515397
0.37500066 0.023670645 0.25663063 -0.057434447 -0.16128673 0.21910633 0.23688129 0.020434786
0.09871007 -0.087215036 -0.012083334 -0.023757383 -0.19746597 0.17405291 0.24821472 0.09093535
0.1535367 -0.19247799 0.14179772 0.023054322 -0.13813461 0.03522273 0.29094067 0.25003475
0.27272502 -0.025531318 0.14031088 0.060160067 -0.3170872 0.2025125 0.07801569 0.058997802
0.22604726 -0.22229111 -0.22378704 0.0826185 -0.31389928 0.17622352 0.22239298 0.3370867
0.26166615 -0.12621635 0.08234425 0.26839283 -0.17634882 -0.1492981 0.4200048 0.30617893

linear.bias f4 [4]
00000000: d277 be3d 40ff b2bd 46ee c6bd afd5 fabd
0.09300198 -0.08740091 -0.09713416 -0.12247788
